assets/digit_cnn.pth (torch, 378776 bytes, 8 tensors)

conv_layers.0.weight f4 [32, 1, 3, 3]
-0.09300747 -0.34769645 0.0982469 -0.26760158 0.14023553 -0.28701818 0.008787233 0.35697386
0.2997853 0.14643861 -0.327683 0.27686626 -0.18096337 0.009524384 0.2607378 -0.23524028
-0.20763764 0.36620846 0.35263643 0.08938626 0.08938383 -0.17276233 -0.22357014 0.1037213
-0.21945104 -0.3039025 -0.034037054 0.15608838 -0.323015 0.23373587 -0.21210922 -0.3531489
-0.33015355 -0.3145984 -0.25159907 -0.17390357 -0.11898858 -0.30205646 -0.3063938 -0.073617786
-0.1019951 -0.3264767 -0.061318085 -0.1824273 0.13349648 -0.26337436 -0.007478183 0.3128441
0.11755654 -0.35660633 0.24852178 -0.27368563 0.3668311 0.34512177 -0.0150786545 -0.24323983
-0.34303817 0.21552664 0.22130083 0.18692623 0.01772664 0.29009554 -0.29854897 0.15086716
-0.2885416 0.34822696 -0.053816862 -0.0042422176 -0.22756375 -0.28741243 -0.0051808516 0.16442971
0.37763208 0.029718174 0.2867177 -0.16214049 -0.3274659 0.007253349 0.17369814 -0.048905026
-0.30531886 -0.21753682 0.19608931 -0.22694089 0.35377902 0.28177837 0.30482522 0.012857008
0.22617929 0.16548127 0.20170625 0.33446965 -0.04479573 0.093402416 -0.17019404 0.122057036
-0.27083114 -0.2814065 -0.27581674 -0.10929387 -0.33081907 -0.33357868 -0.18106563 -0.06407757
-0.26442182 -0.24417219 -0.075534835 -0.13597181 0.044317376 -0.24091782 0.26763248 -0.2523657
0.2079461 -0.21373922 -0.04902312 -0.18890193 -0.24879315 -0.27060464 0.20794661 0.18538304
0.22758982 -0.27461156 0.16802886 -0.08068157 -0.15847903 0.3800407 -0.14269622 -0.19564986
0.24975601 -0.008292355 0.28348204 -0.31388915 0.051000956 0.36687964 -0.24340862 0.28155375
-0.058254644 -0.25841224 -0.17489778 -0.13611549 -0.044017836 -0.20070124 -0.36433947 0.09971522
0.3348725 -0.07207124 0.05619279 -0.081792414 0.31255278 0.053148206 -0.06484516 0.3357356
0.07477952 -0.249522 -0.30491972 -0.3482421 -0.3012898 0.24080819 -0.33334628 -0.23172851
0.30066174 0.32587385 0.18898161 -0.19990724 -0.020263 -0.015001516 0.22393836 -0.016810661
-0.012271911 0.3615062 -0.07440767 -0.2855884 -0.30107084 -0.13399382 0.28313062 0.29326612
0.27677223 0.1283631 0.0036171554 0.25190827 0.16873088 0.32534406 0.21777183 -0.3439146
-0.054097764 0.21876816 0.08991465 -0.16988158 0.09609839 0.06685933 -0.02339522 -0.32287407
0.14427926 0.23190922 -0.19148004 0.12273005 -0.011789736 -0.35034853 0.11479886 0.32031897
-0.15046272 -0.1417212 0.2896214 0.0020689613 0.15527396 0.24809097 -0.2041991 0.04323745
-0.33805087 0.028733598 -0.25587595 -0.37555358 -0.28687122 0.047885235 -0.0023727831 -0.37146363
0.27758902 -0.367628 -0.11070195 0.11780492 0.09446971 -0.06662447 -0.08909006 0.06615584
-0.010498445 0.28005213 0.27935314 -0.3273476 -0.013633188 -0.08871695 -0.11292539 0.1896225
-0.21701303 0.14500396 0.23715992 0.13269669 0.080268726 0.33768502 0.023503175 0.25535873
-0.23303826 -0.3208639 0.23994176 0.29696637 0.16141789 0.29693642 -0.009811365 0.15217055
-0.22395264 0.092167415 0.09211537 -0.32125106 0.0544029 0.10679729 -0.26425716 -0.088327676
00000000: b37a bebd 4505 b2be ac35 c93d 1303 89be
00000010: e799 0f3e 0cf4 92be 54f8 0f3c 47c5 b63e
00000020: 757d 993e 01f4 153e 11c6 a7be 6ac1 8d3e
00000030: 764e 39be 290c 1c3c 6d7f 853e d4e2 70be
00000040: f69e 54be ad7f bb3e c38c b43e 2510 b73d
00000050: df0e b73d 9ce8 30be 92ef 64be d56b d43d
00000060: c6b7 60be 1c99 9bbe 706a 0bbd a2d5 1f3e
00000070: 3962 a5be 7558 6f3e 2933 59be efcf b4be
00000080: e309 a9be 0b13 a1be 98d1 80be c713 32be
00000090: 49b0 f3bd 25a7 9abe a6df 9cbe ecc4 96bd
000000a0: cfe2 d0bd f427 a7be ac28 7bbd 39ce 3abe
000000b0: 4db3 083e 01d9 86be 8c0b f5bb 1a2d a03e
000000c0: 7cc1 f03d 1b95 b6be 7e7c 7e3e 8620 8cbe
000000d0: 49d1 bb3e cdb3 b03e 760c 77bc dd13 79be
000000e0: b3a2 afbe 04b3 5c3e af9c 623e 9769 3f3e
000000f0: 7537 913c 6787 943e 69db 98be ec7c 1a3e
00000100: b9bb 93be ce4a b23e 126f 5cbd 4d02 8bbb
00000110: 7906 69be b927 93be 22c4 a9bb 4360 283e
00000120: fe58 c13e 8773 f33c aacc 923e 2808 26be
00000130: 9ca9 a7be 80ad ed3b eddd 313e a350 48bd
00000140: c152 9cbe f9c1 5ebe a3cb 483e 3163 68be
00000150: 8622 b53e 4145 903e 0d12 9c3e 33a6 523c
00000160: 8b9b 673e ec73 293e 158c 4e3e 9b3f ab3e
00000170: ba7b 37bd c449 bf3d 5947 2ebe 0af9 f93d
00000180: 61aa 8abe 8314 90be da37 8dbe 77d5 dfbd
00000190: 1e61 a9be d3ca aabe 4569 39be 1a3b 83bd
000001a0: 4c62 87be 4608 7abe 02b2 9abd 323c 0bbe
000001b0: 2386 353d 29b3 76be 2007 893e 1436 81be
000001c0: d3ef 543e 74de 5abe 78cc 48bd 826f 41be
000001d0: a2c3 7ebe b18c 8abe f5ef 543e 0dd5 3d3e
000001e0: 4e0d 693e e399 8cbe c20f 2c3e 613c a5bd
000001f0: 5448 22be b294 c23e f51e 12be 7058 48be
00000200: 0ac0 7f3e a8dc 07bc 8f24 913e 14b6 a0be
00000210: 61e6 503d a6d7 bb3e 1c40 79be d027 903e
00000220: 6c9c 6ebd 9c4e 84be 6718 33be dc61 0bbe
00000230: 0c4c 34bd a084 4dbe b48a babe 7e37 cc3d
00000240: 6974 ab3e 169a 93bd 692a 663d c882 a7bd
00000250: eb06 a03e efb1 593d 8acd 84bd 89e5 ab3e
00000260: 0126 993d b282 7fbe 701e 9cbe ca4c b2be
00000270: a842 9abe 6c96 763e 5dac aabe 3d4a 6dbe
00000280: 56f0 993e f0d8 a63e 6584 413e 7cb4 4cbe
00000290: 97fe a5bc ebc8 75bc 1950 653e 83b6 89bc
000002a0: 2010 49bc 5717 b93e 0c63 98bd a538 92be
000002b0: f525 9abe ad35 09be 7ff6 903e fa26 963e
000002c0: 17b5 8d3e 9e71 033e cc0d 6d3b 1ffa 803e
000002d0: cac7 2c3e 7f93 a63e 94ff 5e3e 9315 b0be
000002e0: 9e95 5dbd c304 603e 2c25 b83d 70f5 2dbe
000002f0: 3ccf c43d 8bed 883d 55a7 bfbc c04f a5be
00000300: f1bd 133e 9c79 6d3e 5813 44be e459 fb3d
00000310: bd29 41bc e260 b3be aa1b eb3d d900 a43e
00000320: e612 1abe 5d1f 11be 4249 943e 6997 073b
00000330: 2300 1f3e 8f0b 7e3e 9219 51be c119 313d
00000340: 0115 adbe b962 eb3c 2c02 83be 8f48 c0be
00000350: c9e0 92be 4f23 443d b280 1bbb 7b30 bebe
00000360: 2620 8e3e bd39 bcbe b4b7 e2bd b543 f13d
00000370: 5679 c13d 6972 88bd d974 b6bd b77c 873d
00000380: ab01 2cbc fe62 8f3e 6007 8f3e 1b9a a7be
00000390: bc5d 5fbc 3bb1 b5bd 6d45 e7bd 672c 423e
000003a0: aa38 5ebe eb7b 143e 0dda 723e a4e1 073e
000003b0: ee63 a43d 0de5 ac3e bb89 c03c 61be 823e
000003c0: 95a1 6ebe 4648 a4be 4bb3 753e fa0b 983e
000003d0: bb4a 253e 0d08 983e d9bf 20bc 99d2 1b3e
000003e0: d753 65be 45c2 bc3d fca6 bc3d 057b a4be
000003f0: 93d5 5e3d 8ab8 da3d b74c 87be 24e5 b4bd

conv_layers.0.bias f4 [32]
0.28655183 0.15637282 0.32032928 -0.10889387 0.19119506 -0.045159183 0.23271123 0.011566244
0.14611945 0.32632983 0.15274435 -0.008167359 0.0146340635 -0.21335204 -0.08748257 -0.11971397
-0.20540464 -0.0136612775 0.17534235 0.018939 0.09320977 0.0626705 -0.083397605 -0.24274658
0.23094288 0.2823131 0.3008281 0.20000668 -0.2666241 0.14465006 0.20476384 0.19674934
00000000: ecb6 923e 3220 203e 3302 a43e c003 dfbd
00000010: a3c8 433e d6f8 38bd da4b 6e3e 5880 3d3c
00000020: 56a0 153e b414 a73e 0469 1c3e 63d0 05bc
00000030: b6c3 6f3c f578 5abe 102a b3bd 992c f5bd
00000040: 9855 52be 8dd3 5fbc f28c 333e f625 9b3c
00000050: c4e4 be3d 6459 803d 5dcc aabd 8f92 78be
00000060: 4a7c 6c3e 588b 903e 2406 9a3e 8dce 4c3e
00000070: f482 88be 251f 143e 9dad 513e a978 493e

conv_layers.3.weight f4 [64, 32, 3, 3]
0.01569882 0.00795482 -0.0041055786 0.06206423 -0.033386048 -0.07950981 -0.018754553 0.040711917
-0.0071926825 -0.0033752131 0.063232936 0.035589088 0.05213582 -0.01436886 0.019287813 0.050865218
-0.011372848 0.054344244 0.015195226 -0.010738972 0.01963786 0.070324905 0.059146952 0.048812285
-0.022494424 0.01939998 -0.028143272 0.028266963 -0.00022065229 0.011826299 0.05010611 -0.016304825
0.018298907 -0.0031749294 -0.043924462 0.0069635888 0.060591545 -0.063877076 -0.018125573 -0.025795553
0.0252119 0.038664896 -0.053780902 0.049443893 -0.00947616 -0.05580321 0.065960415 -0.014536451
-0.004524547 0.019273032 0.0048529743 0.04939103 0.04489124 0.071146645 0.03206301 0.03406467
0.023198143 0.009258549 0.07931867 0.028768225 0.002343913 0.01061552 -0.029184889 -0.024622532
-0.03963102 -0.07150761 -0.00024565012 -0.030017542 0.08705156 0.033351377 -0.023174189 0.031004077
0.019041736 -0.018628841 -0.000908758 0.0636983 -0.0091503905 -0.0053326446 -0.011661992 -0.010481729
-0.056638297 0.011604401 0.017998515 -0.031576384 -0.06302144 0.023408407 -0.051624376 -0.0020989366
0.041432127 -0.06904309 0.048100144 -0.002256568 0.044984695 0.0017688719 0.0036520425 0.033689275
-0.044876873 0.04662929 -0.04285916 -0.028932253 0.021444663 0.05355869 0.0713235 -0.06663606
0.033911817 0.050846096 -0.040209495 0.046749312 0.033280257 -0.035227153 -0.03581952 -0.0123226065
0.086860165 0.053336475 -0.056839354 0.019140566 0.017701095 -0.059937946 0.053038247 0.04512156
-0.01348503 0.044832278 0.037761327 -0.014150593 -0.026749736 -0.019051855 -0.0018854267 -0.0011295783
0.07232491 -0.009299795 -0.0066459933 0.05311654 -0.040051263 0.010601343 0.029252151 -0.010042388
0.03347973 0.03804821 0.056847565 -0.07449081 -0.020236274 0.042490866 0.055726748 0.08831369
-0.06325017 0.045477938 0.021608414 -0.043798864 0.07248633 -0.051558267 -0.06394732 0.030391537
-0.08092888 0.083556876 0.033544846 -0.03209042 0.06323768 -0.00848201 0.005904869 0.026259579
-0.035393517 0.0076380717 0.041133434 -0.014628583 -0.020742608 -0.029435078 -0.025934527 -0.01486666
-0.011201527 -0.032235105 -0.016984364 -0.041843988 0.013583854 0.026275348 0.028265126 -0.037304543
-0.016809853 0.062157333 0.064019896 0.0011701755 -0.019639375 -0.039667934 0.043626208 0.083208725
0.010024457 0.056936838 -0.048408017 0.0003144746 0.036633052 -0.06185327 -0.08036314 0.014665052
-0.028397493 0.04544131 0.044939388 -0.037806947 0.049609 -0.044189744 -0.01087483 -0.014068964
0.014020471 -0.08384511 0.027392229 0.024753738 0.030351207 -0.021170435 -0.0035859477 0.027343763
-0.016300574 -0.013106289 0.05879258 -0.057998575 0.03806347 0.0345907 -0.032100875 0.053443868
-0.022448312 -0.0038818414 0.051214796 -0.034660153 0.058488313 0.033559695 -0.07674532 -0.06539137
0.057306487 -0.022558544 0.03922651 0.037511803 0.028994959 -0.009421384 -0.007382026 -0.049572363
0.034321718 0.022933122 0.040851895 -0.026941717 0.043190796 0.024635036 -0.046091523 0.018876141
0.024692327 -0.022578262 0.035428043 0.007921409 -0.023885354 -0.0065408885 0.033690322 0.040202327
0.057298053 -0.020795818 0.03357409 -0.011904445 -0.032165855 -0.025289126 -0.009674601 0.09000464
00000000: d09a 803c ef54 023c 1788 86bb 1037 7e3d
00000010: cfbf 08bd 0ad6 a2bd 26a3 99bc 8ac1 263d
00000020: 98b0 ebbb ae32 5dbb 4580 813d ddc5 113d
00000030: 5f8c 553d 5e6b 6bbc 7a01 9e3c 0c58 503d
00000040: 2f55 3abc 1298 5e3d 66f5 783c 83f2 2fbc
00000050: 94df a03c 8106 903d 1344 723d 64ef 473d
00000060: 3a46 b8bc b5ec 9e3c b88c e6bc 1e90 e73c
00000070: e65e 67b9 18c3 413c 103c 4d3d b291 85bc
00000080: 97e7 953c 7a12 50bb 23ea 33bd d12e e43b
00000090: d72e 783d fcd1 82bd 157c 94bc 3251 d3bc
000000a0: 3089 ce3c 155f 1e3d 5d49 5cbd ae85 4a3d
000000b0: e541 1bbc e891 64bd 4116 873d 4b2a 6ebc
000000c0: a742 94bb 7ae2 9d3c b305 9f3b 404e 4a3d
000000d0: e0df 373d 55b5 913d 8154 033d 6587 0b3d
000000e0: 080a be3c 2bb1 173c d471 a23d 57ab eb3c
000000f0: 569c 193b b8ec 2d3c 2615 efbc 31b5 c9bc
00000100: 2354 22bd 9572 92bd 9aca 80b9 59e7 f5bc
00000110: 1748 b23d 749b 083d ccd7 bdbc 43fc fd3c
00000120: 6afd 9b3c 839b 98bc b839 6eba 4174 823d
00000130: 85eb 15bc 77bd aebb f111 3fbc 8fbb 2bbc
00000140: 8ffd 67bd 6320 3e3c 9f71 933c 3d56 01bd
00000150: 6211 81bd fdc2 bf3c 1574 53bd 508e 09bb
00000160: bcb4 293d 7766 8dbd a804 453d eee2 13bb
00000170: df41 383d 7ed9 e73a 1b57 6f3b c4fd 093d
00000180: d0d0 37bd 5bfe 3e3d 168d 2fbd 5503 edbc
00000190: b8ac af3c 5b60 5b3d 0e12 923d 7d78 88bd
000001a0: 1ee7 0a3d ff43 503d b6b2 24bd 357c 3f3d
000001b0: e150 083d 594a 10bd 7db7 12bd c2e4 49bc
000001c0: bee3 b13d 5977 5a3d 62d0 68bd adcc 9c3c
000001d0: e301 913c 7e81 75bd a23e 593d 63d1 383d
000001e0: 51f0 5cbc 0da2 373d 9fab 1a3d e4d7 67bc
000001f0: 4322 dbbc a312 9cbc 6c20 f7ba 5c0e 94ba
00000200: 151f 943d 2b5e 18bc a2c6 d9bb bb90 593d
00000210: cb0c 24bd 41b1 2d3c 35a2 ef3c d488 24bc
00000220: 0b22 093d 71d8 1b3d fed8 683d a38e 98bd
00000230: 8bc6 a5bc e70a 2e3d bb41 643d cfdd b43d
00000240: 4e89 81bd 1347 3a3d 2104 b13c 7066 33bd
00000250: b773 943d c32e 53bd d0f6 82bd acf7 f83c
00000260: 0abe a5bd de1f ab3d 5266 093d 3f71 03bd
00000270: c282 813d 21f8 0abc a27d c13b 541e d73c
00000280: cbf8 10bd ca48 fa3b 887b 283d b9ac 6fbc
00000290: 67ec a9bc d521 f1bc a574 d4bc 4b93 73bc
000002a0: 9c86 37bc f508 04bd cb22 8bbc 9a64 2bbd
000002b0: d08e 5e3c 663f d73c 448c e73c a6cc 18bd
000002c0: d1b4 89bc b098 7e3d dd1c 833d 9360 993a
000002d0: c1e2 a0bc d87a 22bd 65b1 323d 5669 aa3d
000002e0: 9f3d 243c 9a36 693d 7c47 46bd 11e0 a439
000002f0: 8a0c 163d db59 7dbd 6e95 a4bd b045 703c
00000300: dca1 e8bc ab20 3a3d 5d12 383d 75db 1abd
00000310: cf32 4b3d 4e00 35bd 582c 32bc 8381 66bc
00000320: 1eb6 653c fcb6 abbd ab65 e03c 5ac8 ca3c
00000330: 18a3 f83c 9f6d adbc 3802 6bbb 0700 e03c
00000340: c888 85bc c3bb 56bc 7dd0 703d ea8f 6dbd
00000350: 71e8 1b3d faae 0d3d 357c 03bd f5e7 5a3d
00000360: 86e5 b7bc 7e66 7ebb 9bc6 513d cef7 0dbd
00000370: 7191 6f3d e475 093d a62c 9dbd e9eb 85bd
00000380: 35ba 6a3d b2cc b8bc faab 203d faa5 193d
00000390: d686 ed3c 265c 1abc ece4 f1bb 640c 4bbd
000003a0: ee94 0c3d 3ede bb3c 5154 273d e0b4 dcbc
000003b0: d5e8 303d 6acf c93c 77ca 3cbd 23a2 9a3c
000003c0: 9047 ca3c 0cf6 b8bc ff1c 113d ccc8 013c
000003d0: 38ab c3bc f354 d6bb ddfe 093d 32ab 243d
000003e0: 5db1 6a3d fe5b aabc fc84 093d dc0a 43bc
000003f0: 58c0 03bd 242b cfbc 3882 1ebc 5a54 b83d

conv_layers.3.bias f4 [64]
-0.04978158 -0.0024509046 -0.03823166 0.04143419 0.0011971146 0.047860973 0.042948972 0.010796908
-0.020784471 -0.041866165 -0.03526754 0.0006111142 -0.051542472 -0.049340837 -0.028242243 0.027719649
-0.01779033 -0.020833991 -0.040923085 0.030724686 0.005550598 0.011173056 -0.02833848 0.0046675233
-0.00032693046 -0.029714363 -0.0053903456 -0.047838055 0.038363893 0.007523351 0.046537336 -0.028930953
-0.042991523 0.053067394 -0.03853728 -0.029497325 -0.058009196 -0.03691838 -0.021198878 0.005884926
0.019865315 -0.031148849 0.038853943 0.034144685 0.027633209 0.044867173 0.01658691 -0.04148509
0.052505143 0.034322236 0.017732345 0.0077005574 0.006432077 0.049394708 -0.0031074316 -0.00894372
0.056665342 -0.007575907 0.0491302 0.05187003 -0.03025272 0.00603234 -0.0034725799 -0.053523913
00000000: c5e7 4bbd 5b9f 20bb cd98 1cbd e6b6 293d
00000010: 80e8 9c3a de09 443d 43eb 2f3d 84e5 303c
00000020: 3244 aabc db7b 2bbd b274 10bd 2e33 203a
00000030: 331e 53bd 9e19 4abd 475c e7bc 5114 e33c
00000040: 07bd 91bc 0cac aabc f79e 27bd 56b2 fb3c
00000050: cae1 b53b 320f 373c 1a26 e8bc 06f2 983b
00000060: dd67 abb9 896b f3bc 7fa1 b0bb d6f1 43bd
00000070: 7523 1d3d 7186 f63b ef9d 3e3d 9b00 edbc
00000080: e117 30bd 325d 593d 44d9 1dbd 60a4 f1bc
00000090: 0d9b 6dbd ba37 17bd 45a9 adbc 56d6 c03b
000000a0: 96bc a23c df2b ffbc 5025 1f3d 4cdb 0b3d
000000b0: 0a5f e23c a4c6 373d 45e1 873c 45ec 29bd
000000c0: a20f 573d 7995 0c3d 6c43 913c f554 fc3b
000000d0: 2cc4 d23b 1b52 4a3d 0da6 4bbb ae88 12bc
000000e0: eb19 683d 503f f8bb c03c 493d ab75 543d
000000f0: 8dd4 f7bc f0aa c53b 3994 63bb e43b 5bbd

fc_layers.0.weight f4 [128, 576]
0.04455908 0.040520176 0.055170856 0.042224407 0.032209318 -0.019327616 0.037738893 -0.0022751405
-0.018872945 0.043551367 0.040531985 -0.056458294 -0.026525918 -0.0739091 0.035463575 0.01413229
0.013551172 0.012760919 0.06654232 -0.06102973 -0.022321887 -0.007498687 0.0023233688 0.028177911
-0.06722776 -0.013034267 0.04467915 0.0238338 -0.044659838 0.037837487 0.033246167 -0.029084617
-0.017743034 -0.021985358 0.029896732 -0.030130645 -0.021002078 -0.067408316 -0.027027264 -0.030055376
0.017006837 -0.009276693 0.00027777065 -0.030477727 0.0011987118 -0.003104899 -0.02789956 0.0065892376
0.05838721 0.008424469 0.012569449 0.05384048 0.024667447 -0.035235785 0.01427427 -0.029189881
-0.0142640965 -0.030717468 -0.026289022 0.038426645 0.051138997 0.014234589 0.04547396 0.00075476576
-0.077041335 0.03911139 0.022998825 0.017871888 0.05403087 0.017840043 -0.004727109 0.02737628
0.020141492 -0.034353804 0.022375317 0.0006974766 -0.015350553 0.061613135 -6.53192e-05 -0.004139503
0.011015632 -0.024287036 0.019030541 -0.03647504 -0.026105642 -0.04963974 0.015640564 -0.017279029
0.019132774 -0.02956854 -0.029899737 0.07760122 -0.0061758086 0.005889448 -0.052094538 0.024737563
0.021729246 -0.011131969 -0.017799607 0.0013425573 0.070052244 -0.020181853 0.008297461 0.029963378
-0.0024357676 -0.006619028 -0.032242097 -0.024352863 -0.040267263 -0.06503971 -0.009196785 -0.056670975
-0.013972756 0.077756606 -0.048777305 -0.016711604 0.004657517 -0.028672522 -0.0556057 0.0049066567
-0.0036128485 -0.0065095797 0.027971903 0.07371904 0.00016724701 -0.008350197 0.04288894 -0.022367073
-0.06098274 0.0073093153 -0.019990355 -0.022657277 0.005765766 0.048936475 0.034564245 -0.017598711
0.013191786 -0.033356883 -0.007230215 0.047627732 -0.023659308 -0.0058070286 -0.019270066 0.037007026
-0.033239786 0.00746623 0.0027136111 0.01038096 -0.02235854 0.019379836 0.021917492 0.045610175
-0.0016874535 0.012700612 0.005565945 0.028207667 0.040780794 0.026943253 -0.041068144 0.009373244
-0.02113045 0.02114498 0.0015728186 -0.054824892 -0.004470031 0.024198554 0.043765306 0.04385608
0.060476143 0.03252225 0.025578834 0.059661966 -0.011630363 0.022580232 -0.020283017 0.0662399
-0.007700461 0.02713892 -0.053205293 0.040689334 0.06062881 0.003929125 -0.03936767 0.026009088
-0.011415158 0.010480482 -0.001995563 0.043029677 0.011640613 0.056568753 -0.004193745 -0.014236645
0.052713513 0.03329104 -0.00984213 -0.005299291 0.024314385 -0.053588543 0.000997346 0.010790329
0.00045151028 -0.0177876 -0.022590486 -0.0024791616 -0.013930101 -0.040791698 0.031062832 0.022910317
0.015991248 -0.002247392 -0.008013069 -0.03320019 0.02081945 0.034258097 0.04895981 0.006781444
0.023186093 -0.0023740125 0.013959669 -0.012414931 -0.052958403 0.010625079 0.024870493 -0.030167084
-0.020595599 0.018074304 -0.0065764184 -0.05948123 0.01945366 0.0158103 0.004265462 -0.029552648
-0.0065743076 -0.010878274 0.04282458 0.02850153 0.04296545 -0.015363677 0.0006216021 -0.021187333
0.00066645816 0.028967908 -0.025373574 -0.0010042894 0.0002951184 0.05605002 -0.035715215 -0.027373116
0.035153348 -0.03554367 0.038578138 -0.020155855 -0.024293223 0.0038868324 0.05118086 0.011003105
00000000: 9583 363d 7cf8 253d d6fa 613d 80f3 2c3d
00000010: ebed 033d f354 9ebc 1994 1a3d 861a 15bb
00000020: 6f9b 9abc eb62 323d de04 263d d040 67bd
00000030: e24c d9bc a75d 97bd 4142 113d 1f8b 673c
00000040: bc05 5e3c 2c13 513c 5747 883d 4ffa 79bd
00000050: 64dc b6bc 8cb7 f5bb a943 183b 5dd5 e63c
00000060: b5ae 89bd ae8d 55bc 7c01 373d 1a3f c33c
00000070: 3ced 36bd 7bfb 1a3d 222d 083d dd42 eebc
00000080: d759 91bc a31a b4bc fee9 f43c 8bd4 f6bc
00000090: 8d0c acbc 5f0d 8abd 4868 ddbc b136 f6bc
000000a0: ec51 8b3c 45fd 17bc bfa1 9139 6dac f9bc
000000b0: 181e 9d3a 907b 4bbb 9e8d e4bc 88ea d73b
000000c0: 6d27 6f3d c906 0a3c 17f0 4d3c d687 5c3d
000000d0: 6313 ca3c 6653 10bd a1de 693c 9e1f efbc
000000e0: f5b3 69bc 33a3 fbbc 135c d7bc 4265 1d3d
000000f0: 2077 513d 3238 693c e742 3a3d 79db 453a
00000100: d9c7 9dbd 4433 203d 0868 bc3c 1168 923c
00000110: 794f 5d3d 4825 923c dde5 9abb 3844 e03c
00000120: c5ff a43c 93b6 0cbd 714c b73c ddd6 363a
00000130: e380 7bbc 0e5e 7c3d fafb 88b8 aba4 87bb
00000140: e97a 343c 9bf5 c6bc f0e5 9b3c da66 15bd
00000150: 80db d5bc 0a53 4bbd a420 803c c08c 8dbc
00000160: 56bc 9c3c b939 f2bc 4bf0 f4bc 63ed 9e3d
00000170: 705e cabb 45fc c03b 1561 55bd 6ea6 ca3c
00000180: 8801 b23c dd62 36bc 7bd0 91bc bff8 af3a
00000190: 8d77 8f3d 6a54 a5bc 13f2 073c c275 f53c
000001a0: 66a1 1fbb 6ee4 d8bb 4a10 04bd a87f c7bc
000001b0: 49ef 24bd 8a33 85bd 1dae 16bc d31f 68bd
000001c0: fded 64bc db3e 9f3d b6ca 47bd c6e6 88bc
000001d0: 169e 983b a3e2 eabc cdc2 63bd 05c8 a03b
000001e0: 8ac5 6cbb 504e d5bb 5525 e53c 02fa 963d
000001f0: 075f 2f39 44cf 08bc 50ac 2f3d 273b b7bc
00000200: 0ac9 79bd fb82 ef3b d0c2 a3bc c19b b9bc
00000210: c0ee bc3b 9d71 483d 3d93 0d3d 2c2b 90bc
00000220: 5c22 583c 3aa1 08bd 70eb ecbb 4c15 433d
00000230: 2ad1 c1bc e348 bebb 42dc 9dbc ae94 173d
00000240: 7126 08bd 47a7 f43b d7d6 313b e714 2a3c
00000250: 4229 b7bc 76c2 9e3c 508c b33c bcd1 3a3d
00000260: 8b2d ddba 3a16 503c 8862 b63b c413 e73c
00000270: c309 273d 19b8 dc3c 1237 28bd 3c92 193c
00000280: c419 adbc 3d38 ad3c 0927 ce3a 1190 60bd
00000290: 5679 92bb 0c3c c63c 4043 333d 6fa2 333d
000002a0: d5b5 773d 0d36 053d b48a d13c 1b60 743d
000002b0: 478d 3ebc 2efa b83c 9228 a6bc c9a8 873d
000002c0: 2654 fcbb 7152 de3c cbed 59bd dca9 263d
000002d0: ea55 783d e4bf 803b fe3f 21bd 0311 d53c
000002e0: a506 3bbc 54b6 2b3c fec7 02bb e33f 303d
000002f0: 45b8 3e3c a3b4 673d af6b 89bb d140 69bc
00000300: 20ea 573d 305c 083d e340 21bc ada5 adbb
00000310: f62e c73c a97f 5bbd 61b9 823a ecc9 303c
00000320: afb8 ec39 4db7 91bc af0f b9bc 6e79 22bb
00000330: 143b 64bc 3215 27bd 7b77 fe3c 6bae bb3c
00000340: 1400 833c fb48 13bb 3f49 03bc ecfc 07bd
00000350: 8d8d aa3c 3852 0c3d 158a 483d e036 de3b
00000360: c3f0 bd3c 5295 1bbb 18b7 643c ff67 4bbc
00000370: e9ea 58bd d014 2e3c 34bd cb3c f620 f7bc
00000380: 1ab8 a8bc 9010 943c ff7e d7bb 97a2 73bd
00000390: 485d 9f3c 9a84 813c 4ac5 8b3b 6518 f2bc
000003a0: 4a6d d7bb ca3a 32bc d468 2f3d 0a7c e93c
000003b0: 8afc 2f3d efb7 7bbc 03f3 223a 0f91 adbc
000003c0: 40b5 2e3a 1b4e ed3c 3edc cfbc 5ca2 83ba
000003d0: 1fba 9a39 b594 653d 1e4a 12bd 963d e0bc
000003e0: f5fc 0f3d 3d96 11bd 1c04 1e3d e41d a5bc
000003f0: 9502 c7bc 3aba 7e3b 05a3 513d 5e46 343c

fc_layers.0.bias f4 [128]
0.04139877 0.04502994 0.02449299 0.017812764 0.0009601973 -0.039776973 -0.023330148 0.019437432
-0.004436996 -0.0017210958 0.028512891 -0.008532235 0.022969283 -0.021220138 0.00085062603 -0.00041799736
0.035515565 0.026226752 -0.012597178 -0.027617367 0.011953225 -0.028901298 0.020392084 0.03391291
-0.03110107 -0.02220557 -0.008570802 0.009767534 0.041231643 -0.036381762 0.021501306 -0.031499337
-0.021951208 0.0148280375 -0.005280141 0.030984707 -0.026160792 -0.02369072 -0.015355781 0.013155755
-0.0063608484 -0.04100421 0.029590672 -0.036579456 -0.0032729844 0.021088379 -0.034119863 -0.0041966257
-0.008776894 -0.046100363 -0.0076294816 -0.018073188 -0.036377233 -0.015870545 0.04214711 -0.03597665
-0.038870823 -0.018743187 0.02666577 0.024022743 0.03718455 -0.04759508 -0.01730621 -0.020161092
0.0008261517 -0.026802108 0.03770844 0.026990155 -0.013690933 -0.012218165 -0.015776064 -0.028957594
-0.042117637 -0.017198661 0.0018318989 0.0023287502 -0.036901914 -0.018807093 0.030894179 0.030737903
0.0111072175 0.026952198 -0.031563435 -0.010237705 -0.030161953 -0.026104761 -0.04019352 0.026359752
-0.045253206 -0.002632784 0.0049084867 0.050053302 -0.007695634 0.025395041 -0.006290691 -0.005875919
-0.009727214 -0.033881474 0.022471385 -0.02015865 0.0040466078 -0.017445557 -0.031775028 -0.014711619
0.0026218866 0.019467434 -0.046177443 0.028515708 0.0022789538 0.007895915 0.03442349 -0.0014257751
0.023389276 0.012234021 -0.0082651265 0.027303826 -0.028793177 -0.020684304 0.017488996 0.01388161
0.03786354 -0.0064802766 -0.011514226 0.016940862 0.029662276 0.039015926 -0.03495104 -0.028744925
00000000: c291 293d 5071 383d 86a5 c83c 13ec 913c
00000010: c0b5 7b3a 2eed 22bd de1e bfbc 403b 9f3c
00000020: 3864 91bb 6496 e1ba de93 e93c caca 0bbc
00000030: 142a bc3c dbd5 adbc 8cfc 5e3a a826 dbb9
00000040: c578 113d 7cd9 d63c 6564 4ebc d13d e2bc
00000050: 76d7 433c 6ac2 ecbc 4d0d a73c 43e8 0a3d
00000060: acc7 febc 75e8 b5bc 8d6c 0cbc 0208 203c
00000070: 83e2 283d 0b05 15bd 8223 b03c 7305 01bd
00000080: 05d3 b3bc 4cf1 723c 0805 adbb a4d3 fd3c
00000090: 284f d6bc 0a13 c2bc d096 7bbc 3c8b 573c
000000a0: aa6e d0bb 08f4 27bd 2368 f23c 57d4 15bd
000000b0: 917f 56bb 89c1 ac3c 45c1 0bbd d983 89bb
000000c0: f6cc 0fbc bcd3 3cbd bb00 fabb 390e 94bc
000000d0: 4b00 15bd f202 82bc 73a2 2c3d 405c 13bd
000000e0: 0337 1fbd 508b 99bc 2c72 da3c 58cb c43c
000000f0: d44e 183d 0ff3 42bd c1c5 8dbc e028 a5bc
00000100: 1a92 583a 1890 dbbc 2a74 1a3d 751a dd3c
00000110: ef4f 60bc b32e 48bc ce3c 81bc 7a38 edbc
00000120: 8b83 2cbd 35e4 8cbc 541c f03a f29d 183b
00000130: 7626 17bd 5511 9abc ca15 fd3c 0ece fb3c
00000140: 0cfb 353c dbca dc3c a948 01bd 0cbc 27bc
00000150: 3316 f7bc a7d9 d5bc f6a1 24bd 68f0 d73c
00000160: 6d5b 39bd c98a 2cbb 5fd7 a03b b104 4d3d
00000170: a82b fcbb 4309 d03c 2422 cebb c88a c0bb
00000180: e55e 1fbc 4dc7 0abd e915 b83c c123 a5bc
00000190: 6899 843b fce9 8ebc 8826 02bd 0109 71bc
000001a0: f5d3 2b3b 2b7a 9f3c 8f24 3dbd c699 e93c
000001b0: 805a 153b de5d 013c a5ff 0c3d 13e1 baba
000001c0: de9a bf3c 3471 483c 746a 07bc 46ac df3c
000001d0: abdf ebbc 2172 a9bc 1545 8f3c b16f 633c
000001e0: cd16 1b3d 8058 d4bb 2aa6 3cbc 90c7 8a3c
000001f0: 4dfe f23c 2acf 1f3d d228 0fbd 7a7a ebbc

fc_layers.2.weight f4 [9, 128]
-0.07195884 0.020558273 0.08837169 -0.06248562 0.059239082 -0.046296082 -0.026347024 -0.085220754
-0.08383455 0.040129155 -0.04463127 -0.09327021 0.039590124 -0.11292492 0.05712626 0.09309948
0.10591961 0.0052758176 0.108300105 0.077716455 -0.059145086 0.05762052 0.06581952 -0.0020840913
-0.040929142 -0.035804007 -0.058008708 0.056977592 -0.04483329 0.04526613 0.015124083 0.0140974745
-0.078865275 0.018590398 -0.00057514757 0.057351395 -0.060689658 0.020932095 0.02864477 0.057234336
-0.0010925108 0.07646665 -0.09274463 -0.020191213 0.03321035 -0.015074995 0.07772054 -0.03062341
0.08525753 -0.004376027 -0.012055027 -0.016490532 -0.033696435 -0.009916626 0.03187289 -0.017861553
-0.03971031 0.030281762 0.047948066 0.08629228 0.09927301 0.05967998 -0.01865634 0.03962245
0.02700058 0.013895277 -0.05137006 -0.057228968 0.07534227 -0.07929646 0.049185954 -0.051799126
-0.0720093 0.025220877 0.07932239 -0.0022449864 0.00048110634 0.06716737 -0.02619806 -0.080085024
-0.06851356 0.080247395 -0.10425171 -0.04305662 -0.08834313 -0.08478884 -0.08086832 -0.054885894
-0.068351656 0.08510099 0.062231474 0.07471808 0.04070533 -0.02394336 0.10520554 -0.007403262
-0.03578632 -0.08506656 0.07986466 -0.08941189 0.013702899 0.035756342 -0.02757703 0.054479472
0.08570089 -0.059835263 0.03627779 -0.04762912 0.056943573 0.025529774 0.04509213 0.066166155
-0.081609175 -0.06806663 0.07448206 -0.10133537 -0.103190035 0.07037618 -0.06506495 0.07542931
0.113958545 0.00019921802 -0.0061861672 0.09094055 -0.12220705 -0.07127295 0.08050761 0.02391182
0.014123493 -0.08423697 0.035502575 -0.013093842 0.08607208 -0.08118677 0.040585976 -0.06417516
0.047996573 -0.09250714 0.0140035525 -0.012094268 0.08019802 0.036246914 -0.10797059 -0.035321377
-0.00768269 0.050924037 -0.08099817 0.045653615 0.08549091 -0.06733435 -0.037247308 -0.07869724
-0.09921529 -0.055241916 -0.05168976 -0.02069073 0.11235253 0.050140046 -0.013823956 0.026949905
-0.07051133 -0.022804476 0.034361735 0.036681913 0.03406991 -0.11208995 -0.0026701093 0.03461784
-0.016806334 -0.05983215 -0.102794096 0.02780193 -0.0668473 -0.029344738 -0.06983538 -0.10050331
-0.09161273 0.02064395 0.0643236 0.045260705 -0.046420917 0.055435617 0.07452323 0.050518386
0.03388432 0.078951955 0.030128751 -0.0024277645 0.053756546 0.06970618 -0.09623653 0.008406028
-0.011772507 0.049662855 0.07414863 -0.0008396272 0.026467616 -0.06131075 -0.032352045 -0.0379363
0.0745334 -0.038442623 0.027363697 0.032574188 -0.03506524 -0.0867965 0.042441286 -0.054849435
-0.04441699 -0.037067994 -0.038550895 -0.061030246 0.07040207 -0.012089238 0.0236255 -0.010534897
0.0776283 0.035490688 0.08587278 -0.024248559 -0.072245516 -0.09435186 -0.10940004 -0.07359445
0.025562063 -0.087117866 -0.110628 0.100955255 0.047063746 -0.081312746 -0.046761908 -0.020279486
0.01568428 -0.06862667 -0.032138202 0.06904636 0.021073058 -0.042963695 0.021589458 0.032220155
-0.08453979 0.030590434 -0.021594778 0.08736311 0.06256545 -0.025244907 -0.05754175 0.034423847
-0.079772085 -0.00027852962 -0.08990637 0.07125421 0.03580839 -0.028288962 0.03940811 -0.014854533
00000000: 285f 93bd d369 a83c 37fc b43d ecf0 7fbd
00000010: aea4 723d f6a0 3dbd b7d5 d7bc 3888 aebd
00000020: 73b1 abbd 785e 243d 47cf 36bd 7404 bfbd
00000030: 4129 223d 2e45 e7bd 3afd 693d f1aa be3d
00000040: 61ec d83d c4e0 ac3b 72cc dd3d ce29 9f3d
00000050: 1e42 72bd 7f03 6c3d 62cc 863d 4095 08bb
00000060: 51a5 27bd 39a7 12bd 8a9a 6dbd 5661 693d
00000070: 1da3 37bd fa68 393d 00cb 773c 18f9 663c
00000080: 1e84 a1bd e44a 983c 80c5 16ba 4ce9 6a3d
00000090: b895 78bd c979 ab3c 70a8 ea3c 8d6e 6a3d
000000a0: 9432 8fba 8c9a 9c3d e6f0 bdbd 0b68 a5bc
000000b0: 9307 083d 1dfd 76bc f22b 9f3d f2dd fabc
000000c0: 809b ae3d c664 8fbb 7382 45bc 2717 87bc
000000d0: 4605 0abd 5879 22bc 268d 023d 6452 92bc
000000e0: 47a7 22bd 7511 f83c 3165 443d 02ba b03d
000000f0: a64f cb3d ff72 743d 2ed5 98bc 264b 223d
00000100: 5230 dd3c 04a9 633c 6969 52bd ec68 6abd
00000110: 0c4d 9a3d 2f66 a2bd 3677 493d 522b 54bd
00000120: 9d79 93bd 039c ce3c c773 a23d 9f20 13bb
00000130: 003d fc39 0c8f 893d 509d d6bc 9e03 a4bd
00000140: d650 8cbd bf58 a43d ec81 d5bd 235c 30bd
00000150: 3eed b4bd c5a5 adbd 4a9e a5bd 08d0 60bd
00000160: f4fb 8bbd 6e49 ae3d 6ee6 7e3d cb05 993d
00000170: a2ba 263d de24 c4bc 0176 d73d 1097 f2bb
00000180: ad94 12bd 6037 aebd 1590 a33d 951d b7bd
00000190: 2082 603c 3e75 123d 39e9 e1bc de25 5f3d
000001a0: f383 af3d d215 75bd 0598 143d c116 43bd
000001b0: aa3d 693d d123 d13c 86b2 383d 1f82 873d
000001c0: b622 a7bd 8466 8bbd 0d8a 983d eb88 cfbd
000001d0: 4c55 d3bd 6321 903d c640 85bd af7a 9a3d
000001e0: 1963 e93d 2ee5 5039 55b5 cabb 0a3f ba3d
000001f0: b147 fabd 8df7 91bd 2de1 a43d b9e2 c33c
00000200: 3966 673c 6f84 acbd 266b 113d 8e87 56bc
00000210: 8f46 b03d 4045 a6bd 7b3d 263d 446e 83bd
00000220: 0e98 443d 6274 bdbd 286f 653c 0927 46bc
00000230: dc3e a43d a577 143d af1f ddbd 26ad 10bd
00000240: 13bf fbbb b995 503d 5ee2 a5bd 49ff 3a3d
00000250: dc15 af3d 97e6 89bd a290 18bd 052c a1bd
00000260: 6331 cbbd 5945 62bd a4b8 53bd 9b7f a9bc
00000270: 1519 e63d a65f 4d3d e07d 62bc 0cc6 dc3c
00000280: 3f68 90bd 74d0 babc e4be 0c3d c63f 163d
00000290: e48c 0b3d 6a8f e5bd 00fd 2ebb 70cb 0d3d
000002a0: 70ad 89bc 8e12 75bd b685 d2bd e0c0 e33c
000002b0: 3de7 88bd 6064 f0bc da05 8fbd aed4 cdbd
000002c0: 749f bbbd 801d a93c 17bc 833d 4a63 393d
000002d0: dc23 3ebd 7510 633d a39f 983d 5eec 4e3d
000002e0: 49ca 0a3d 90b1 a13d 92d0 f63c 211b 1fbb
000002f0: d32f 5c3d 1dc2 8e3d a817 c5bd 70b9 093c
00000300: 79e1 40bc 476b 4b3d 3ddb 973d 6d1a 5cba
00000310: 9dd2 d83c fb20 7bbd 9483 04bd 1863 1bbd
00000320: f8a4 983d 0376 1dbd d529 e03c 836c 053d
00000330: 92a0 0fbd 5dc2 b1bd ead6 2d3d cda9 60bd
00000340: 97ee 35bd 9cd4 17bd 8be7 1dbd dafa 79bd
00000350: f62e 903d f011 46bc 448a c13c 909a 2cbc
00000360: 96fb 9e3d af5e 113d 11de af3d eaa4 c6bc
00000370: 75f5 93bd 8c3b c1bd 210d e0bd b0b8 96bd
00000380: 8867 d13c da6a b2bd ef90 e2bd a1c1 ce3d
00000390: eac5 403d 4c87 a6bd 6a89 3fbd 2a21 a6bc
000003a0: 527c 803c 248c 8cbd 59a3 03bd 2e68 8d3d
000003b0: 68a1 ac3c b3fa 2fbd 60dc b03c 48f9 033d
000003c0: 3323 adbd ca98 fa3c 88e7 b0bc 6eeb b23d
000003d0: 5122 803d 68ce cebc e6b0 6bbd 0500 0d3d
000003e0: 8c5f a3bd 9d07 92b9 d520 b8bd baed 913d
000003f0: d1ab 123d 41be e7bc 666a 213d 6d60 73bc

fc_layers.2.bias f4 [9]
-0.0045526717 -0.06833933 0.040224385 -0.022435015 0.079768226 0.0062888367 -0.032977514 0.04858169
0.03895383
00000000: 942e 95bb 7ef5 8bbd 53c2 243d a3c9 b7bc
00000010: 865d a33d 9612 ce3b 6e13 07bd 98fd 463d
00000020: 0d8e 1f3d
